autoenc.pth (torch_old, 7450 bytes, 8 tensors)

encoder.conv1.weight f4 [16, 3, 3, 3]
0	0xbcaa3856	-0.020778816
1	0x39d1287c	0.0003989375
2	0xbc3268ae	-0.010889215
3	0x3e1818b7	0.14853178
4	0xbdfae9b9	-0.1225161
5	0x3d8be553	0.068308495
6	0x3e324c4a	0.17411914
7	0x3e0c8bac	0.13725156
8	0x3e31e638	0.17372978
9	0x3e0e58f5	0.13901122
10	0xbd28034c	-0.04101877
11	0x3e6ed3cb	0.2332298
12	0x3d89b2b1	0.06723536
13	0x3abed359	0.0014558836
14	0x3e60531d	0.21906705
15	0x3d08dc2f	0.03341311
16	0x3e8078bd	0.25092116
17	0x3d996f2e	0.07491909
18	0x3e43e88a	0.19131675
19	0x3d903d02	0.07042886
20	0x3df29f23	0.11846759
21	0x3d49cdf6	0.049268685
22	0x3e0b8262	0.13623956
23	0x3d7737fe	0.060356133
24	0x3e8c2cbb	0.27377877
25	0xbdcf6903	-0.10127451
26	0x3dd00e18	0.10158938
27	0xbe34be10	-0.17650628
28	0x3e3a3414	0.18183929
29	0x3c795f7d	0.01522052
30	0x3e370143	0.17871575
31	0x3e5347e8	0.20632899
32	0x3b88efc3	0.0041789724
33	0x3e09e12b	0.13464801
34	0x3ddece47	0.10879188
35	0x3dfb9f65	0.122862615
36	0xbdacaa3a	-0.08430906
37	0xbdef3ef9	-0.11681933
38	0x3c75cec0	0.015002906
39	0x3e08a969	0.13345875
40	0x3dd5b9e1	0.10435844
41	0x3e04bd67	0.12962876
42	0x3dac3580	0.08408642
43	0x3dca3ac7	0.09874492
44	0x3e267f7b	0.16259567
45	0x3e09652f	0.13417505
46	0xbd6dad61	-0.058026675
47	0x3e816d6f	0.25278804
48	0xbd658f8b	-0.056045096
49	0xbd02b14f	-0.031907376
50	0x3e4737c2	0.19454864
51	0x3e26835b	0.16261046
52	0x3e3c0a44	0.18363291
53	0x3e9b95a2	0.30387598
54	0x3d51a253	0.051180195
55	0xbcb6da3f	-0.022320865
56	0x3dc29c5f	0.09502482
57	0xbd1c4a5f	-0.038156863
58	0xbdb9369d	-0.0904362
59	0x3e063030	0.1310432
60	0x3d81cbdd	0.06337712
61	0xbdf789ff	-0.120868675
62	0x3dfce77a	0.12348838
63	0x3cbf0470	0.023317546
64	0x3e495ed5	0.19665082
65	0x3d04683a	0.03232596
66	0x3e627888	0.22116292
67	0x3d5886cc	0.052862927
68	0x3e353bd1	0.176986
69	0x3e40432a	0.18775621
70	0x3d8dca45	0.069233455
71	0x3e34435d	0.17603822
72	0x3e946dec	0.28990114
73	0x3cc5dd79	0.024153458
74	0x3dd12953	0.1021296
75	0x3e21a480	0.15785408
76	0x3e26b14b	0.1627857
77	0xbd4c9aba	-0.049952246
78	0x3d92ad77	0.07161992
79	0x3e4fd0f6	0.20294556
80	0xbd5dd6e4	-0.054160014
81	0xbdd48640	-0.10377169
82	0x3e808215	0.25099245
83	0xbd58f1cb	-0.052964967
84	0xbd87626d	-0.0661057
85	0x3e643852	0.2228711
86	0x3e1fec61	0.15617515
87	0x3e5698a1	0.20956661
88	0x3bdc8dcb	0.00673077
89	0xbcb8f60f	-0.022578267
90	0x3e6f2292	0.23353031
91	0x3e51012d	0.20410605
92	0x3dff391d	0.12462065
93	0x3de19a4e	0.110157594
94	0x3da98ee4	0.08279207
95	0xbc9058b7	-0.017620428
96	0x3cd07bf2	0.025449727
97	0x3de4d075	0.111725725
98	0xbd7a804e	-0.061157517
99	0x3e33ca8e	0.17557737
100	0x3e8cbb66	0.27486724
101	0x3e8c6a5d	0.274249
102	0xbc8aa52c	-0.016924463
103	0x3e33c6b7	0.17556272
104	0xbd9e585a	-0.077316955
105	0x3e317b13	0.17332105
106	0x3e19fa9e	0.15037009
107	0x3da705e9	0.08155424
108	0x3d55d016	0.0522004
109	0xbd93a301	-0.07208825
110	0xbe3eaf6b	-0.18621604
111	0x3e14f42c	0.14546269
112	0xbd24b72e	-0.040213756
113	0x3d5221b8	0.051301688
114	0xbcbe516d	-0.023232186
115	0x3dc4b04e	0.0960394
116	0x3d1ba0ef	0.037995275
117	0x3da527e3	0.080642484
118	0xbca8d60e	-0.020609882
119	0x3e2dee78	0.169855
120	0x3e28f1e6	0.16498527
121	0x3dc912a0	0.098180056
122	0xbdc6c7c9	-0.09706075
123	0x3e7feef2	0.24993494
124	0xbc83d53d	-0.01609289
125	0xbcd412ee	-0.025887933
126	0x3e44938a	0.19196907
127	0x3e201bb0	0.15635562
128	0x3e226466	0.15858611
129	0x3ea3a727	0.31963465
130	0x3d24720f	0.040147837
131	0x3c002afa	0.007822746
132	0x3d8255d2	0.06364025
133	0x3e19817e	0.14990804
134	0x3e080a40	0.1328516
135	0x3e5e18aa	0.21689096
136	0xbe01dc5a	-0.12681714
137	0xbe5715c4	-0.21004397
138	0xbd90e53c	-0.07074973
139	0xbe31c480	-0.17360115
140	0xbeb123d8	-0.3459766
141	0x3e5e277f	0.21694754
142	0xbd5ae03f	-0.053436514
143	0xbe07b0b9	-0.13251008
144	0xbd35f816	-0.044426046
145	0xbdfc4024	-0.12316921
146	0xbe6c8bfb	-0.23100273
147	0xbd483eec	-0.048888132
148	0x3d436be8	0.04771033
149	0xbe01077b	-0.1260051
150	0x3e8bb2f5	0.2728497
151	0xbda43f75	-0.08019916
152	0xbe0e1efb	-0.13879006
153	0x3e87227f	0.26393506
154	0xbe2f61fd	-0.17127223
155	0xbda3758b	-0.07981404
156	0x3de6736e	0.11252485
157	0x3d9ec271	0.077519305
158	0xbe6e760b	-0.23287217
159	0x3e8d65c6	0.2761671
160	0x3e026492	0.12733677
161	0xbe05f6a9	-0.13082375
162	0x3e08101b	0.13287394
163	0xbbcd52e9	-0.006265987
164	0xbe7ef412	-0.24897793
165	0xbd9a731b	-0.07541486
166	0xbe4662c9	-0.19373621
167	0xbe601539	-0.21883096
168	0x3d491d78	0.04910037
169	0x3dfca2da	0.12335749
170	0x3dda490b	0.10658463
171	0x3d14c66d	0.036322046
172	0x3d808f95	0.06277386
173	0x3d0d87e1	0.034553412
174	0x3e0130bb	0.12616245
175	0x3dbc91d8	0.09207505
176	0x3d37c64f	0.044866856
177	0x3e73826f	0.23780225
178	0x3e9decce	0.3084473
179	0x3e330797	0.17483364
180	0x3e3c0053	0.18359499
181	0xbc835d4f	-0.016035704
182	0x3e80d59a	0.25162965
183	0x3e961eef	0.29320475
184	0x3e071161	0.13190223
185	0xbcdce3b7	-0.026964052
186	0x3e9f5adf	0.31124017
187	0x3e3d8b44	0.18510157
188	0x3d8054d5	0.062661804
189	0x3d8199e6	0.06328182
190	0x3de3c99d	0.11122439
191	0x3aa68bfb	0.0012706512
192	0x3e63e401	0.22254945
193	0x3e899cfc	0.26877582
194	0x3d3a65e1	0.045507316
195	0x3e6826c7	0.22671042
196	0x3e12bc4f	0.14329647
197	0xbe1300f4	-0.14355832
198	0x3de9a45a	0.11408301
199	0xbc4c10c4	-0.012455169
200	0x3d154491	0.036442343
201	0xbd96fd90	-0.07372582
202	0x3e0b41ac	0.1359927
203	0xbd8ab4ab	-0.06772741
204	0x3dc76030	0.09735143
205	0x3c2e3048	0.010631628
206	0x3ccbb69e	0.024867352
207	0x3e82d23f	0.2555103
208	0x3e724469	0.23658909
209	0x3d0a8913	0.03382213
210	0x3e78e9cc	0.24307936
211	0x3e07c64d	0.1325924
212	0x3df9fd91	0.12206567
213	0xbccbfa71	-0.024899693
214	0xbc965523	-0.018351143
215	0x3b95b3d5	0.004568557
216	0xbd5ccb7d	-0.053905
217	0xbd3e311c	-0.046433553
218	0xbe8cdf18	-0.27513957
219	0xbe67ffd7	-0.22656189
220	0xbb7942d7	-0.0038034224
221	0xbe0b2e66	-0.13591918
222	0x3cb4b4d1	0.022058876
223	0xbd557b2b	-0.052119415
224	0xbd3405c8	-0.043950826
225	0x3d58e652	0.052954026
226	0xbe45f3ae	-0.19331238
227	0x3c8558cb	0.016277691
228	0xbe7e33a7	-0.24824391
229	0xbdf95295	-0.121739544
230	0x3d4f5898	0.0506216
231	0xbe8933ad	-0.26797238
232	0x3cbe07f4	0.023197152
233	0x3d56b6ea	0.052420534
234	0x3e209ad9	0.1568407
235	0xbe3c5d4c	-0.18394965
236	0x3dd23bb5	0.102652945
237	0x3e08d5b5	0.13362773
238	0xbe573f5d	-0.21020265
239	0xbe4fb3f4	-0.2028349
240	0xbcf552e4	-0.029946752
241	0x3d56df8d	0.05245929
242	0xbe3af5e0	-0.18257856
243	0xbe3af97b	-0.18259232
244	0x3dbf9064	0.09353712
245	0xbe85b6cc	-0.26116025
246	0xbdf3a160	-0.11896014
247	0xbde02707	-0.10944944
248	0xbe97f9f2	-0.2968288
249	0x3d0fbd9c	0.035092935
250	0xbe7e40e9	-0.24829449
251	0x3d7aca00	0.0612278
252	0xbe3a5a51	-0.18198515
253	0x3da06c0d	0.07833109
254	0x3e129b9a	0.1431717
255	0xbe62895b	-0.2212271

encoder.conv1.bias f4 [16]
0	0xbdbd321e	-0.09238075
1	0x3cef8200	0.029236794
2	0x3d6b7914	0.057488516
3	0x3e0ce321	0.13758518
4	0x3d1381d7	0.036012497
5	0x3e42350c	0.18965548
6	0xbce15285	-0.027505169
7	0xba64d146	-0.0008728694
8	0x3e21808a	0.1577169
9	0x3e7faf17	0.24969135
10	0x3c333e3f	0.010940134
11	0xbe092275	-0.1339205
12	0xbbde7300	-0.0067886114
13	0x3e1e48c8	0.15457451
14	0xbbc68e9c	-0.006059481
15	0xbd43e10f	-0.047822054

encoder.conv2.weight f4 [4, 16, 3, 3]
0	0x3dd81eb8	0.10552734
1	0xbd614b1c	-0.05500327
2	0x3d24e63e	0.04025864
3	0xbd8a11cd	-0.067416765
4	0xbe4ecd4d	-0.20195504
5	0xbd39d1d9	-0.045366142
6	0x3d41c297	0.047304716
7	0xbdc44261	-0.09582973
8	0x3dd07d7a	0.10180183
9	0x3dc487c5	0.095962085
10	0xbd95f11e	-0.0732138
11	0x3d09c9ce	0.03363972
12	0x3dd90895	0.1059734
13	0xbe57cb90	-0.21073747
14	0x3e1e4810	0.15457177
15	0x3e556059	0.20837535
16	0x3e004b5c	0.12528747
17	0x3e08d163	0.13361125
18	0x3e78c0b2	0.24292257
19	0xbcf282d2	-0.029603396
20	0x3d0b71f4	0.03404422
21	0x3d75410e	0.059876494
22	0xbd9483e1	-0.072517164
23	0xbc738c8f	-0.014865055
24	0x3e2b8a10	0.16751885
25	0xbb41b036	-0.0029554493
26	0x3dd5acaa	0.10433324
27	0x3de36828	0.111038506
28	0x3cfb7902	0.03069735
29	0x3e304292	0.17212895
30	0x3dcc5168	0.099764645
31	0xbd037d50	-0.03210193
32	0xbd18c566	-0.03729763
33	0x3dbd7604	0.09251025
34	0x3d3216e5	0.043478865
35	0x3e03d592	0.1287444
36	0x3e4abdd3	0.19798975
37	0x3cd631de	0.026146825
38	0x3dbaa5fd	0.09113691
39	0x3e2c2ff1	0.16815163
40	0xbe0256e3	-0.12728457
41	0xbd207550	-0.039174378
42	0x3e436827	0.190827
43	0x3dc77893	0.097397946
44	0x3c8ce387	0.017198337
45	0x3e5bb139	0.21454324
46	0x3e18ca49	0.14920916
47	0x3d213cb2	0.039364524
48	0x3dfbccb3	0.12294903
49	0x3d84de3c	0.064877
50	0xbdcc6b3e	-0.09981392
51	0x3dc8a745	0.09797529
52	0x3dedfd73	0.11620607
53	0x3d6d51dd	0.0579394
54	0x3d42f773	0.047599267
55	0xbe65836b	-0.22413413
56	0xbe2e2672	-0.17006853
57	0x3e0ae379	0.13563336
58	0xbe32accf	-0.17448734
59	0xbe689ecd	-0.22716828
60	0x3e0f4785	0.13992126
61	0xbd435790	-0.047690928
62	0x3c12c052	0.008956986
63	0x3e2e7ed4	0.17040569
64	0xbdf35bb0	-0.118827224
65	0xbdfd7f38	-0.12377781
66	0x3d15c569	0.036565218
67	0xbdd6ce32	-0.104885474
68	0xbe513b33	-0.20432739
69	0x3d2819a0	0.041040063
70	0xbdb2d202	-0.08731462
71	0xba458fdb	-0.000753639
72	0x3dd68e37	0.10476344
73	0x3e5ebe2e	0.21752235
74	0x3dc59fb9	0.09649605
75	0x3e06e746	0.13174161
76	0x3e3739ea	0.17893186
77	0x3e307f84	0.17236143
78	0x3dc677d1	0.09690822
79	0x3dc92be1	0.09822822
80	0x3e4060c9	0.1878692
81	0x3e412eab	0.18865459
82	0x3deaa76e	0.11457716
83	0x3e24c471	0.16090561
84	0x3e654be4	0.22392231
85	0x3e2eb47c	0.17061037
86	0x3e40dac1	0.18833448
87	0x3e52071f	0.20510529
88	0x3dccf960	0.10008502
89	0x3dc2904b	0.09500178
90	0x3e5848e2	0.21121553
91	0x3e69e509	0.22841276
92	0x3e521cad	0.20518751
93	0x3c3bdeae	0.011466665
94	0xbe806de1	-0.2508383
95	0xbd000884	-0.03125812
96	0x3d8e5bbf	0.06951093
97	0xbe6f24cf	-0.23353885
98	0xbc82ffcb	-0.015991112
99	0xbd7e8fd3	-0.06214888
100	0x3d80ab24	0.062826425
101	0x3d3c7272	0.04600758
102	0xbd0970a4	-0.033554688
103	0x3b4084c9	0.002937602
104	0x3da0e2fd	0.078557946
105	0x3d84f6a1	0.06492353
106	0x3d232aa2	0.03983558
107	0x3b30b8a1	0.0026965516
108	0x3d296b27	0.041361954
109	0xbe08a7f4	-0.13345319
110	0xbd904e28	-0.07046157
111	0x3d80bc44	0.06285909
112	0xbe33b0f1	-0.17547967
113	0xbe520b22	-0.2051206
114	0x3d52eb5b	0.051493984
115	0xbdfd9f9d	-0.123839594
116	0xbda386e1	-0.079847105
117	0x3de533a4	0.1119149
118	0x3c269d9e	0.010169415
119	0x3d332c8c	0.043743655
120	0x3de7ceca	0.11318739
121	0x3bd83081	0.006597579
122	0x3d303b7b	0.043025475
123	0x3d5f89b2	0.054574676
124	0x3d4d9cda	0.050198413
125	0xbc221449	-0.009892532
126	0x3dfbe86f	0.123001926
127	0xbcd29f53	-0.025710737
128	0x3dd19c36	0.10234873
129	0x3d547648	0.051870614
130	0xbe6d595b	-0.23178618
131	0xbd97a7ff	-0.074050896
132	0xba9303a5	-0.0011216296
133	0xbe01887d	-0.12649722
134	0x3cc1b770	0.02364704
135	0x3c3d9817	0.011571906
136	0xbe392a54	-0.18082553
137	0x3d3f89ed	0.046762396
138	0xbc98e602	-0.018664364
139	0xbe7ec8d7	-0.24881302
140	0xbda9734b	-0.082739435
141	0xbccc703f	-0.024955867
142	0xbd90ad09	-0.07064254
143	0x3d12e567	0.035863306
144	0x3d61e7cc	0.0551527
145	0xbd8c6efd	-0.06857107
146	0x3dcad6cc	0.099042505
147	0xbdcd5354	-0.10025659
148	0xbe3bb625	-0.18331201
149	0x3dbd0f09	0.09231383
150	0xbc6b86e0	-0.014375418
151	0xbdc74d04	-0.097314864
152	0x3d93f972	0.07225312
153	0xbda71b27	-0.08159476
154	0x3d6ad926	0.057335995
155	0x3cadba60	0.021207035
156	0xbd4e1b37	-0.050318923
157	0xbccca828	-0.024982527
158	0x3d01b059	0.03166232
159	0xbce12524	-0.02748353
160	0xbb2da0f7	-0.0026493648
161	0x3d349e6a	0.044096388
162	0x3da8b063	0.08236768
163	0xbd895981	-0.06706525
164	0x3d716a68	0.058939368
165	0x3ac18f27	0.0014767394
166	0xbd31e64b	-0.043432515
167	0x3d818f6d	0.063261844
168	0x3dafa5f1	0.08576573
169	0xbd009555	-0.031392414
170	0x3de5d2ce	0.112218484
171	0x3d107edf	0.035277244
172	0xbcbb2ca0	-0.022848427
173	0x3db36a94	0.087605625
174	0xbd65a8a1	-0.05606902
175	0xbde5250f	-0.11188709
176	0x3d844730	0.064588904
177	0xbda5fa18	-0.08104342
178	0xbd6e10ed	-0.05812161
179	0x3e0d8395	0.13819726
180	0x3dcb9b08	0.09941679
181	0xbd9a0a2c	-0.075214714
182	0x3d78e6d5	0.060767014
183	0x3d464acd	0.04841118
184	0xbe29527b	-0.1653537
185	0xbca8cbca	-0.020604987
186	0x3e0c9cb2	0.1373165
187	0xbe15220e	-0.14563772
188	0xbbda74b4	-0.006666744
189	0x3e1946dd	0.14968438
190	0xbeaf7d8a	-0.34275466
191	0x3ce7f5cd	0.02831545
192	0x3e4d5d44	0.2005511
193	0xbe8ea447	-0.2785971
194	0xbdf40104	-0.11914256
195	0x3e057e60	0.1303649
196	0xbe22be5e	-0.15892932
197	0x3d857d34	0.06518021
198	0x3ce1af61	0.027549447
199	0xbd5264fb	-0.051365834
200	0x3df6b701	0.12046624
201	0x3cc2df16	0.023788016
202	0xbdf3bd9b	-0.11901399
203	0x3e0fdfd1	0.14050223
204	0x3e1ab0c0	0.15106487
205	0x3d2e8075	0.042602975
206	0x3de99c5a	0.11406775
207	0x3e05450d	0.13014622
208	0xbd6bda36	-0.05758115
209	0x3c8c4273	0.01712153
210	0xbd9691f8	-0.0735206
211	0xbe6cb946	-0.23117551
212	0x3d7b1b5d	0.061305393
213	0x3baf1540	0.0053431094
214	0xbe09df32	-0.13464049
215	0xbcd93009	-0.026512163
216	0x3e8de61b	0.2771462
217	0x3dc3bb30	0.095571876
218	0x3cdc6d6b	0.026907643
219	0x3e60ef48	0.21966279
220	0x3e3ba2ea	0.18323866
221	0x3c670c08	0.01410199
222	0x3e2810b0	0.16412616
223	0x3e040d33	0.1289566
224	0xbd0e0330	-0.03467101
225	0x3e94cebb	0.29063973
226	0x3e5b39e1	0.21408798
227	0x3d171918	0.036889166
228	0x3e812eee	0.25231117
229	0x3eb1edbf	0.34751698
230	0x3d50cca6	0.050976418
231	0x3e8eab95	0.27865282
232	0x3df964a7	0.12177401
233	0x3e34e4bf	0.17665385
234	0x3e2775a3	0.16353469
235	0x3e3a571d	0.18197294
236	0x3db81f6f	0.089903705
237	0x3c1e0da3	0.009646806
238	0xbcfbc35f	-0.030732809
239	0x3e0e94fa	0.13924018
240	0xbd425d3e	-0.047452204
241	0xbdb2b38d	-0.08725653
242	0x3d9c2832	0.07624854
243	0xbda4d4cc	-0.080484
244	0xbd0db6ef	-0.034598287
245	0x3d9ba4d7	0.075998
246	0x3d836f57	0.06417721
247	0xbd6c7df4	-0.057737306
248	0xbd5b7ef2	-0.05358786
249	0xbd00a80d	-0.031410266
250	0xbc7bb196	-0.015362164
251	0xbd346afc	-0.04404734
252	0xbd2d6f98	-0.042342752
253	0x3d916dd6	0.07101028
254	0x3e01e514	0.12685043
255	0xbdc0c980	-0.09413433

encoder.conv2.bias f4 [4]
0	0x3e0c258f	0.13686202
1	0x3d6ac0be	0.05731272
2	0x3dea6b7a	0.11446281
3	0xbd3df7ae	-0.046378784

decoder.deconv1.weight f4 [4, 16, 2, 2]
0	0xbd15c513	-0.036564898
1	0xbda38e2a	-0.079861
2	0x3cdffb00	0.027341366
3	0xbe359228	-0.17731535
4	0xbe0661b9	-0.13123216
5	0xbe781d22	-0.24229863
6	0xbd826acc	-0.06368026
7	0xbe846983	-0.2586175
8	0xbe18b867	-0.14914094
9	0xbe3d3cbd	-0.18480201
10	0xbe454964	-0.19266278
11	0xbdebabf6	-0.11507408
12	0x3d0f4d2f	0.034985717
13	0xbda89bdf	-0.08232855
14	0x3ca5ba6a	0.02023049
15	0xbd1d8b9c	-0.03846322
16	0xbb86fac5	-0.0041192495
17	0xbe0666ff	-0.13125227
18	0xbe2b8549	-0.16750063
19	0xbd733b68	-0.059382826
20	0xbc8304c5	-0.015993485
21	0xbdafa03c	-0.08575484
22	0xbc817448	-0.015802518
23	0xbe8002d5	-0.2500216
24	0xbda2b1bd	-0.07944057
25	0xbe375ed6	-0.17907271
26	0x3d6d0f26	0.057875775
27	0xbe83d4a7	-0.25748178
28	0xbd3071dc	-0.043077335
29	0xbdf759dc	-0.12077686
30	0xbd53888c	-0.051643893
31	0xbe199c4a	-0.15001026
32	0xbd1b4bc7	-0.037914064
33	0xbd1ed7de	-0.038780086
34	0xbda9c626	-0.08289747
35	0x3cfde6dc	0.030993871
36	0xbddaeaee	-0.106893405
37	0x3cfb779b	0.03069668
38	0x3cf43dd7	0.029814644
39	0xbd3d94b0	-0.046284378
40	0x3c2e18a8	0.010625996
41	0xbdb9f474	-0.09079829
42	0xbd30404f	-0.04303008
43	0xbcf54218	-0.029938743
44	0xbd8f14f1	-0.06986416
45	0xbddd117b	-0.1079435
46	0xbda46b59	-0.080282874
47	0xbe7ff29c	-0.24994892
48	0xbdf36340	-0.11884165
49	0xbd87da57	-0.06633442
50	0xbdd59066	-0.104279324
51	0xbdee6c0e	-0.116417035
52	0x3d7a2a08	0.06107524
53	0xbc8eb930	-0.017422289
54	0x3d8844ec	0.06653771
55	0xbdaf88b8	-0.08570999
56	0xbde2e058	-0.110779464
57	0xbd87280a	-0.06599434
58	0xbc39f75b	-0.011350478
59	0xbc95e4fb	-0.018297663
60	0xbdf75841	-0.1207738
61	0xbda8de9a	-0.08245583
62	0xbddeac93	-0.1087276
63	0xbdd6d024	-0.104889184
64	0xbc7d017d	-0.015442249
65	0x3d7de064	0.061981574
66	0xbd2bb240	-0.04191804
67	0x3d874277	0.06604474
68	0xbe4fe164	-0.20300823
69	0x3c9c9fb9	0.01911913
70	0xbddb00dd	-0.10693524
71	0xbd07b7e1	-0.033134345
72	0xbbdc09e5	-0.0067150467
73	0x3e056ff2	0.13030985
74	0xbe3c8844	-0.18411356
75	0x3d51b29c	0.051195726
76	0xbe03cdfe	-0.12871549
77	0x3d4232cc	0.047411725
78	0xbdaa55be	-0.08317135
79	0xbdb22aca	-0.086995676
80	0xbdbae7f9	-0.091262765
81	0xbb84fef8	-0.004058715
82	0xbdd47bdd	-0.103751875
83	0x3cd0ae76	0.025473814
84	0xbd23cca5	-0.039990086
85	0x3d3dd606	0.046346687
86	0xbdf5f51a	-0.1200964
87	0x3d9d9c27	0.07695799
88	0xbc84beae	-0.016204204
89	0x3d8475b7	0.06467765
90	0xbd86407c	-0.06555268
91	0x3d6feb3f	0.058573958
92	0x3c7c2f20	0.015392095
93	0x3e001831	0.12509228
94	0xbd0be7b8	-0.03415653
95	0x3de6b724	0.112654
96	0xbd9f6af7	-0.07784074
97	0xbd82d7c2	-0.06388809
98	0x3d667ed8	0.05627331
99	0xbdc812c6	-0.09769206
100	0xbd4ac824	-0.049507275
101	0x3c85c24f	0.016328005
102	0xbe7134dc	-0.2355532
103	0xbdc362d4	-0.09540334
104	0xbe126de6	-0.14299735
105	0xbcd4b139	-0.025963413
106	0xbdab931f	-0.083776705
107	0xbd4ecbc4	-0.050487295
108	0x3c1c07d1	0.009523348
109	0xbcc767e2	-0.024341527
110	0xbeb11a2a	-0.34590274
111	0xbe020baf	-0.1269977
112	0x3dbeab81	0.093100555
113	0x3e018b69	0.12650837
114	0xbe275cb2	-0.16343954
115	0x3de79202	0.11307146
116	0xbda7e010	-0.081970334
117	0xbdd33424	-0.103126794
118	0xbd49138b	-0.049090903
119	0xbe4cf344	-0.20014673
120	0x3c138960	0.009004921
121	0xbccfd4b0	-0.025369972
122	0xbe34ae39	-0.17644586
123	0xbc82bc3a	-0.015958894
124	0x3b0ea68e	0.0021766755
125	0x3dd3b055	0.10336367
126	0xbe2aaaa3	-0.16666655
127	0x3d2aca76	0.041696988
128	0xbd47473e	-0.048651926
129	0xbe5aa911	-0.21353556
130	0xbe5f99ff	-0.21836089
131	0xbc6d81b2	-0.014496254
132	0x3d8c9418	0.06864184
133	0x3be4e460	0.0069852322
134	0xbe4a7fca	-0.1977531
135	0x3c3e53e5	0.011616682
136	0xbd50bebd	-0.050963152
137	0xbd1c5ca3	-0.038174283
138	0xbd8ae06e	-0.06781088
139	0xbb35da69	-0.002774859
140	0xbdcd8b43	-0.10036328
141	0xbdfcf627	-0.12351637
142	0x3d1a8570	0.037724912
143	0xbdd0f042	-0.102020755
144	0xbe154a4a	-0.1457912
145	0xbe174cbf	-0.1477537
146	0xbd66fab0	-0.056391418
147	0xbda7439a	-0.08167191
148	0xbd86fb5e	-0.06590913
149	0x3d8c422a	0.06848557
150	0xbd4566b8	-0.048193663
151	0x3e4c1023	0.1992803
152	0x3d79c24d	0.060976315
153	0x3d970e05	0.07375721
154	0xbdbb300b	-0.09140023
155	0x3d9aca2b	0.07558092
156	0x3c552ce0	0.013011187
157	0xbd9ccc5a	-0.076561645
158	0xbd923ebe	-0.071408734
159	0x3dbba956	0.09163158
160	0xbe27f03c	-0.16400236
161	0xbd6f0cf0	-0.058361948
162	0xbc0032da	-0.007824624
163	0xbe04a167	-0.12952195
164	0xbc99f8c8	-0.018795386
165	0xbe02eab3	-0.12784843
166	0x3ca472a4	0.020074196
167	0xbb212980	-0.0024591386
168	0xbe0a7a27	-0.1352316
169	0xbe220f09	-0.15826048
170	0xbcb7bf72	-0.022430155
171	0xbdeb5944	-0.114916354
172	0xbdcb0199	-0.09912414
173	0xbc3472ee	-0.0110137295
174	0x3d416acc	0.04722099
175	0x3d9670a8	0.07345706
176	0xbe2605b0	-0.16213107
177	0xbde2e025	-0.110779084
178	0xbd2abb17	-0.04168233
179	0xbdc36dac	-0.095424026
180	0x3dbb42e0	0.09143615
181	0x3dba1cac	0.090875
182	0xbddbe4a0	-0.10736966
183	0xbe3385ea	-0.17531553
184	0x3908c800	0.00013044477
185	0xbcf053d0	-0.02933684
186	0x3d0e4f25	0.034743447
187	0xbd9f87e8	-0.07789594
188	0x3a9a948a	0.0011793536
189	0x3e2f7bde	0.17137095
190	0x3e386737	0.18008123
191	0x3cb7d3dd	0.022439891
192	0xbe15702f	-0.14593576
193	0x3dfa988b	0.122361265
194	0x3e030034	0.12793046
195	0x3daea5c5	0.08527712
196	0x3e0ab261	0.13544609
197	0x3df29cbb	0.118463
198	0xbdb0afce	-0.08627282
199	0x3df06cdf	0.117395155
200	0x3e206238	0.15662467
201	0x3dd0579b	0.101729594
202	0x3e71c679	0.23610868
203	0xbde56b6d	-0.112021305
204	0x3e185bf3	0.14878826
205	0x3deb0988	0.11476427
206	0xbd92477a	-0.07142539
207	0xbdd96ebc	-0.10616824
208	0x3e03ad0c	0.12858981
209	0x3e016fc4	0.12640291
210	0xbdbc0244	-0.0918012
211	0xbd77b43a	-0.06047461
212	0x3d92c29e	0.071660265
213	0x3c9adb89	0.01890351
214	0xbd1fe6a8	-0.03903833
215	0x3c930494	0.017946519
216	0xbc89d9ad	-0.016827429
217	0x3da0aefe	0.07845877
218	0xbdf4efe8	-0.11959821
219	0x3de05243	0.1095319
220	0xbd8ef4f2	-0.06980313
221	0x3dd2363d	0.102642514
222	0xbdf66a98	-0.1203205
223	0x3d62ba1c	0.05535327
224	0x3c517a8f	0.012785568
225	0xbbcb3643	-0.006201537
226	0xbdeb21f4	-0.114810854
227	0x3c6a8166	0.014313078
228	0x3aff0f80	0.0019459575
229	0xbd4cf18c	-0.050035045
230	0x3de8ee36	0.1137356
231	0xbd724f1c	-0.059157476
232	0x3e09618c	0.13416117
233	0x3e003b97	0.12522732
234	0xbdf84371	-0.121222384
235	0x3db03506	0.086038634
236	0xbddf0fe6	-0.10891704
237	0x3d715214	0.058916166
238	0x3ddc7b68	0.107657254
239	0x3d8e547d	0.069497086
240	0x3dc439aa	0.09581311
241	0x3d87b8d6	0.066270515
242	0x3de9a059	0.11407537
243	0x3dc559bd	0.09636257
244	0x3d0f9e86	0.03506329
245	0xbd807c3c	-0.06273696
246	0xbd358ac3	-0.044321787
247	0x3d669881	0.056297783
248	0xbd23bb04	-0.039973274
249	0xbda6d104	-0.08145335
250	0x3d9a81ac	0.07544264
251	0x3d2a493b	0.041573744
252	0x3df7ec77	0.12105649
253	0xbd096cd0	-0.033551037
254	0x3d975a71	0.07390297
255	0x3caa65f3	0.020800566

decoder.deconv1.bias f4 [16]
0	0x3d82b68a	0.06382473
1	0x3e472268	0.19446719
2	0xbc1b6754	-0.009485085
3	0xbddda57b	-0.108225785
4	0x3d73f07b	0.059555512
5	0xbd8fb908	-0.07017714
6	0xbdc7aaab	-0.09749349
7	0xbd8b170f	-0.067915075
8	0xbd58d548	-0.052937776
9	0xbd3045c8	-0.0430353
10	0x3dadbf81	0.08483792
11	0x3d87259f	0.065989725
12	0x3cbe44d4	0.02322618
13	0xbdfa7230	-0.12228811
14	0xbcc73599	-0.02431755
15	0xbe1d4bf2	-0.15361002

decoder.deconv2.weight f4 [16, 3, 2, 2]
0	0x3e1a4f1a	0.15069237
1	0x3e954ac7	0.29158613
2	0x3dee589f	0.11637997
3	0x3e7f28a1	0.24917842
4	0xbc9d6400	-0.019212723
5	0x3cb785ef	0.022402732
6	0x3db19e05	0.08672718
7	0xbe252b26	-0.16129741
8	0x3e208bcb	0.15678327
9	0xbe17a8d4	-0.14810497
10	0xbe3bfe1f	-0.18358658
11	0x3da6554f	0.0812174
12	0x3e4dd8d7	0.20102249
13	0x3db783d5	0.08960692
14	0x3e7abeda	0.24486867
15	0x3d853fb4	0.06506291
16	0x3e047bf5	0.12937911
17	0x3e8496ba	0.25896245
18	0x3e2200c5	0.15820606
19	0x3e9fbc3e	0.31198305
20	0x3d099044	0.033584848
21	0x3d4272ab	0.047472637
22	0x3e055904	0.13022238
23	0x3bfeeb00	0.007779479
24	0x3dcabd06	0.098993346
25	0x3d9a1e48	0.07525307
26	0x3c3e6ac4	0.011622135
27	0x3e9b4957	0.3032939
28	0x3e929826	0.28631705
29	0x3e20c991	0.15701891
30	0x3d151dd0	0.036405385
31	0x3e3bbcc0	0.18333721
32	0x3cd84eee	0.026404824
33	0x3ea573ff	0.3231506
34	0xbd858eca	-0.065213755
35	0x3cfae8c0	0.030628562
36	0x3e922e1a	0.28550798
37	0x3d1fedf9	0.039045308
38	0x3e3b381d	0.18283124
39	0x3e6d4b38	0.23173225
40	0x3d8b6a2d	0.06807361
41	0x3db9a228	0.09064132
42	0x3e678e61	0.22612907
43	0x3d861cad	0.06548438
44	0x3d21e43d	0.039524306
45	0x3e7fbe7d	0.2497501
46	0x3e73e03c	0.23816007
47	0xbd3f23f9	-0.046665166
48	0x3e68bcee	0.22728321
49	0x3e7f21a7	0.24915181
50	0x3d9318c6	0.071824595
51	0xbda9b63e	-0.08286713
52	0xbe3d5c5d	-0.18492265
53	0x3e25c176	0.1618708
54	0x3e90f761	0.28313735
55	0xbd9846c6	-0.07435374
56	0x3dbb7066	0.09152298
57	0xbe5dd9a5	-0.21665056
58	0xbd149c48	-0.036281854
59	0x3e83ff23	0.2578059
60	0x3dac5bda	0.08415957
61	0xbdca0b22	-0.09865405
62	0xbdf9da50	-0.12199843
63	0xbcc835cb	-0.024439713
64	0x3e681d0f	0.22667335
65	0x3de1ce3a	0.11025663
66	0x3ce8b44d	0.028406287
67	0x3e1fd3bf	0.15608118
68	0xbdd45696	-0.103680775
69	0x3e6bc9e1	0.2302623
70	0xba80d274	-0.0009828345
71	0x3e88c9ff	0.2671661
72	0x3cdce696	0.02696542
73	0x3e5c1547	0.21492492
74	0xbe07717a	-0.13226882
75	0x3df2a534	0.11847916
76	0x3e685427	0.22688352
77	0xbe3bf1fc	-0.18354028
78	0xbceeac07	-0.029134763
79	0x3e32314c	0.17401618
80	0x3e886a7f	0.2664375
81	0x3e2cce1c	0.168755
82	0x3e9d8cea	0.3077157
83	0x3e12cb36	0.14335331
84	0xbe2a726b	-0.1664521
85	0xbd6dd2d0	-0.058062375
86	0x3e825c94	0.25461257
87	0xbe34c859	-0.17654552
88	0xbe2a1046	-0.1660777
89	0x3e8baf38	0.2728212
90	0x3e2120d5	0.1573518
91	0x3d4a9ed6	0.049467884
92	0x3da5af1d	0.08090041
93	0x3e2379a8	0.15964377
94	0xbdf0212e	-0.117250785
95	0xbd71c4c5	-0.059025545
96	0x3df78e24	0.12087658
97	0xbd611a46	-0.054956697
98	0xbdab43eb	-0.08362564
99	0x3e187746	0.14889249
100	0xbe381e38	-0.17980278
101	0xbe0a9f4b	-0.13537328
102	0x3c2e2d74	0.010630954
103	0xbeba1084	-0.36340725
104	0x3e07b6eb	0.13253371
105	0xbe21da8c	-0.15806025
106	0xbe042801	-0.12905885
107	0xbe21d300	-0.15803146
108	0x3e1fa888	0.15591633
109	0xbe2bdfe7	-0.1678463
110	0x3e965d0f	0.29367873
111	0xbe2218fa	-0.1582984
112	0x3b88f512	0.0041796053
113	0xbc21c450	-0.009873465
114	0x3d86f495	0.06589619
115	0x3e828c24	0.25497544
116	0x3e3ecb57	0.18632255
117	0x3cc4d93c	0.024029367
118	0x3dcc8f72	0.099882975
119	0x3d87cac4	0.06630471
120	0x3dc48f3f	0.095976345
121	0x3de1958a	0.110148504
122	0x3eaa0500	0.3320694
123	0x3e98c9db	0.29841504
124	0x3e972e3c	0.29527462
125	0xbe2129f1	-0.15738656
126	0xbdd8aba1	-0.105796106
127	0xbdffb82a	-0.124862984
128	0x3d302895	0.043007452
129	0xbe5316a3	-0.20614104
130	0xbce15e36	-0.027510744
131	0x3d81cd63	0.063380025
132	0x3e4c9ae4	0.19980961
133	0x3c0f3b1b	0.008742119
134	0x3e9d516c	0.30726182
135	0x3e700fbf	0.23443507
136	0x3d215d9a	0.039395906
137	0x3e3731d3	0.178901
138	0x3ea8b198	0.32947993
139	0xbd1ea80b	-0.038734477
140	0x3e6b9461	0.23005821
141	0x3de7637f	0.11298274
142	0x3eb07482	0.34463888
143	0x3cfd0508	0.030886188
144	0x3e899c9d	0.268773
145	0x3e8e7de3	0.2783042
146	0xbe0f6827	-0.14004575
147	0x3e7d3b00	0.24729538
148	0x3e1dadeb	0.15398376
149	0x3dfd30b9	0.12362809
150	0xbd30dc7f	-0.04317903
151	0x3de41282	0.111363426
152	0xbe07c443	-0.13258462
153	0x3d72d8fd	0.059288967
154	0xbd2d8158	-0.04235968
155	0x3d8805ce	0.06641732
156	0xbe2c6eb8	-0.16839111
157	0x3ceb8ced	0.028753722
158	0xbe0a09bc	-0.13480276
159	0xbd1b586c	-0.037926123
160	0x3de30472	0.11084832
161	0xbe033086	-0.12811479
162	0x3e4926c1	0.1964369
163	0x3df8d1ea	0.12149413
164	0x3ebcd93e	0.36884493
165	0x3e3bda96	0.18345103
166	0x3e60de7b	0.2195987
167	0xbd408560	-0.047002196
168	0x3d91b806	0.07115178
169	0x3e844664	0.25834954
170	0x3dd617ed	0.10453782
171	0xbd2112d2	-0.03932459
172	0x3ea20676	0.31645554
173	0x3d430d3e	0.04762005
174	0x3e6d5b72	0.23179415
175	0x3e9b7458	0.303622
176	0xbe0a0e32	-0.13481978
177	0xbe247b29	-0.16062607
178	0x3cb7d082	0.022438291
179	0xbe4d0f7a	-0.20025435
180	0xbdf17e46	-0.11791663
181	0x3e43a557	0.19106041
182	0x3c9d400f	0.019195585
183	0xbdf5fac5	-0.12010721
184	0xbe1fcd67	-0.15605699
185	0x3dac2901	0.084062584
186	0x3cb1e7c8	0.021716967
187	0xbdd612b2	-0.104527846
188	0x3e884afa	0.26619703
189	0x3d672d34	0.056439593
190	0x3e70c771	0.23513581
191	0x3ee22179	0.44166163

decoder.deconv2.bias f4 [3]
0	0x3d1139bf	0.03545546
1	0x3b43592b	0.0029807787
2	0xbc8a8a41	-0.016911628
